hw1/model_best.npy (npy, 1672 bytes, 1 tensors)

array f8 [199]
0	0xc01185247110c336	-4.380021826408486
1	0xbf89d8004e8f2e1c	-0.01261902084106397
2	0xbfa05aff4e16b6f4	-0.0319442541907459
3	0x3fccfe9538354e62	0.22651925320188854
4	0xbfd01ca8c8cfe71c	-0.25174922571714986
5	0xbf9bf92237ec0db0	-0.02731755701371491
6	0x3fdf63d3755971a6	0.4904678960790768
7	0xbfe03dbe87555395	-0.5075371402004857
8	0xbf636fb8a6d38e80	-0.0023726088025897707
9	0x3fed8a5b0904a4ec	0.923139112103994
10	0x3f89aebf77a188c8	0.012540336454723536
11	0x3f5813c537c02080	0.0014695573763692515
12	0xbfa6bd53bcbdd3f4	-0.044413201131568686
13	0x3fac5b8b87388074	0.055385933166918117
14	0x3f93bf6c0a6d4290	0.01928490461006277
15	0xbfb0cf9043dc73e6	-0.06566716820493887
16	0x3fa50a6310adbe59	0.04109487131688345
17	0x3fa85192dc659887	0.04749735775367108
18	0xbf89e6c5e8d3238b	-0.012647195976016842
19	0xc027d1e926e70ea4	-11.909981933312629
20	0xc0154a1d1c2738f8	-5.3223766707362685
21	0x40283d4aa9540240	12.119710246567706
22	0x402d61fe905226a4	14.69139529230899
23	0xbfda6dd327e9dc20	-0.41295317552379807
24	0x402290e6b1649784	9.283010047463684
25	0x40066a0a9e215a00	2.8017780641487207
26	0xc00798d69ee1c1c6	-2.9496281063695475
27	0xc0022aa00e016166	-2.270813092629555
28	0x3fc682a222df90f0	0.17586161330030547
29	0x400a3d85e611d217	3.280040547770351
30	0xbff2b05bf3aba3f4	-1.1680564421060327
31	0xbfe78c50b836d538	-0.7358783338483255
32	0xbfc30b16de745340	-0.1487759195521452
33	0xbfec36e8b2a7bf68	-0.8817027558670647
34	0xbffa58ea57647492	-1.6467078603521128
35	0x3fe4a0d7e5b83730	0.6446341978750976
36	0x4012e93404a75a8d	4.7277374961037255
37	0xc01c51c9bf5b9158	-7.079871168102123
38	0x400a9827081c3c50	3.3242931970230885
39	0x40108dbd99f1ac45	4.138418584228082
40	0xbfc314a588b259e8	-0.1490675847496299
41	0xc006584994981ce5	-2.793109093563191
42	0x3fe09319459f4b6b	0.5179563865479911
43	0x3fee753a10f4b93a	0.9518099147005963
44	0x3ff5bee4725d8538	1.3591045825381354
45	0xbfea3952618a9898	-0.8194972901444713
46	0xbfb806dfd5031810	-0.09385489416590098
47	0x3fba25d7b3f94fd8	0.10213993209737227
48	0x3fa31e480327a830	0.03734040297042929
49	0xbfc9ce08c620b8ac	-0.20160016702852113
50	0xbfdcbad08414f76a	-0.4489022531378085
51	0xbfb8bd3152d6e2f0	-0.09663685104795738
52	0x3fb7f7fccb5caae0	0.09362773861782214
53	0xbfe0af9217356565	-0.5214319661419436
54	0xbfdbbb1745a3939e	-0.4332941227024153
55	0x3fa17bb116a24c90	0.034146818173348525
56	0x3f8215f8d9039480	0.008830970881215316
57	0xbfd0b914f3dea8fa	-0.26129649939925026
58	0xbfc13094654014dc	-0.13429503387320707
59	0xbfd1d0bbdc4f33d2	-0.27836510195339514
60	0xbfc77e94fd1f2080	-0.1835504756875288
61	0xbfc017d93f22f210	-0.12572780211293422
62	0xbfc146d641d1b280	-0.13497427190613465
63	0xbfd0c628dcaf6a30	-0.2620947032097858
64	0x3f937498f791e660	0.018999471769780008
65	0xbfb8db75bf5a0178	-0.0970986931006389
66	0x3fce7899d79eae90	0.2380554488021187
67	0x3fc5af8bb2e346a0	0.16941972956424411
68	0x3fd5261a9b4aeabc	0.3304506794481019
69	0x3fc8076000b4ba14	0.18772506746741213
70	0x3fb87cd6b54f2790	0.09565488745206907
71	0x3fcaa5c4b4349348	0.2081838493260426
72	0x3fd4fcfab6d118de	0.3279406342811749
73	0x3f9e3ca206d2aca7	0.029528171221198687
74	0xbf9d2b440f713c3f	-0.028485358660244705
75	0xbf8dfec5ebf041f7	-0.014646097433826262
76	0x3f899a14b666a110	0.01250091725962979
77	0xbf982cf483a954f0	-0.02360899022672397
78	0x3f9a8902bd985df4	0.02591327936360517
79	0xbfac5e9da6bb57ac	-0.05540936146068928
80	0xbfa529b07408acc5	-0.041333688892643695
81	0x3fc473baf3d4c695	0.15978180795496102
82	0xbfda003b5e3f40b2	-0.40626415447060105
83	0x3fe323d9cd1e717a	0.5981263166645896
84	0xbfc18490af0f4034	-0.13685806796866162
85	0xbfc1c4c7fa61201c	-0.13881778455311256
86	0x3f9db31f125a7730	0.02900360631485127
87	0x3fd6a2151c145bce	0.3536427282537574
88	0xbfdd66b82e233ae7	-0.45939449792505943
89	0xbfbf4fe1a36c2d90	-0.12231264343079418
90	0x3fe9f873c2047f94	0.8115786351590821
91	0x40296911abf4a5b4	12.705212949384851
92	0x401b81346ab7740c	6.876176516959287
93	0xc024482833e099a8	-10.140931721846599
94	0xc02da449f9dc8ebd	-14.820876892255336
95	0xbff1c94c5d2dbe50	-1.1116450919906988
96	0xc01758bed9ed9c30	-5.836665539863176
97	0x400303437b3484d8	2.3765935540583136
98	0x400cd17907b207e4	3.6022816277700134
99	0xc022406a1244ac72	-9.125809260256776
100	0xbf3b41b551681194	-0.00041590382298319875
101	0x3f38aea5c8af11fa	0.0003766207452680356
102	0xbf2fb26c387c15ce	-0.00024182864239478827
103	0x3f3540a68da9dba0	0.000324288046307181
104	0x3f30453cc5ed0c08	0.00024826749534073754
105	0xbf2229d7513c62b0	-0.0001385760630163899
106	0xbf4988726bad1e5d	-0.0007792051977526072
107	0x3f4527e77bdca0b6	0.0006456260959781998
108	0x3f2e557a586d0dd2	0.00023142927622120266
109	0xbf0ad0fdb45b2e40	-5.114816899051385e-05
110	0x3f17d2d2d7b8e9e0	9.08795536184513e-05
111	0x3f20212c71942a98	0.00012305896306260135
112	0xbf23bf6199c87744	-0.00015066210188846064
113	0xbf2f32c1fa4c20d4	-0.000238023928567316
114	0x3f2f24791283089c	0.0002375982087468629
115	0x3ed78f15e9a10380	5.616886165128103e-06
116	0xbf3fc6ce59f2e505	-0.0004848722255235835
117	0x3f3c3fdf361fda75	0.00043105315683026414
118	0x4009aaa07b1fe6f6	3.2083139056311394
119	0x3ff9a633a738f717	1.6030766040925692
120	0xc00e604482c0c975	-3.7970056738933473
121	0xc0128c83358b130d	-4.637219273198537
122	0x3fd868011fc0e7d0	0.3813479242413651
123	0xc00a03e03d5070b6	-3.2518925466702866
124	0xbfffcddac33786e8	-1.9877574563656086
125	0x3ff032ceed76b42c	1.012404372780348
126	0x400bf63cd6f185b0	3.495233229871438
127	0xbfb4b6646999bb91	-0.08090808466088918
128	0xbfe5188b858de07b	-0.6592462166290852
129	0x3fc5ed6933047708	0.1713077067478752
130	0x3fc39f6230d1bcb0	0.15330150016550226
131	0x3fc192864caa6278	0.1372840761512355
132	0x3fc491c0523b542a	0.1606979753038627
133	0x3fc76daa0900cfb2	0.18303418578727598
134	0xbfc93c59cbef91e4	-0.19715425927928643
135	0xbfe6fb3a9846e8fe	-0.7181675886306775
136	0x40290f3efa6428cf	12.529777359701624
137	0x4014825659576278	5.127282520254646
138	0xc028fc74905e85d5	-12.493076812303949
139	0xbfe7306be6f77f00	-0.7246608267850831
140	0x401bf5aa4fb08274	6.9899074985011005
141	0xc01cb478fe6462ae	-7.1762428044100215
142	0x3ffe6b22d71e3e40	1.901156273179268
143	0x3fca2ea55186c500	0.2045485160902345
144	0xc02725ac5df5055e	-11.573580680999552
145	0x3f8dda973e92f1d2	0.014577085110766417
146	0xbf67e3880281b5e0	-0.0029161125603909127
147	0x3f920679ff16eb20	0.017602831072262792
148	0xbf9beb25efa5fc50	-0.02726420664975776
149	0x3f91361611da2db0	0.01680788501702829
150	0xbf924695fec53b7e	-0.01784738891120296
151	0xbf66035876b602c0	-0.0026871421629837966
152	0xbf861c3ce5c965b8	-0.010796046984227967
153	0x3f90bf4b85a2d6f6	0.016354732543468274
154	0x3f724e532f1c23b4	0.004469227731314019
155	0xbf61e5ade5159418	-0.002184714926146924
156	0x3f832878f528e3fc	0.009354538900071312
157	0xbf8a2bc622c53bb6	-0.012778804718122188
158	0x3f6ee65098e3d6b0	0.0037719320454197777
159	0xbf737c9eb9159678	-0.004757518779432972
160	0x3f46b3d788678580	0.0006928255468744843
161	0xbf8dda5a40697a54	-0.01457663067884344
162	0x3f818bad26faf386	0.008567192794879618
163	0xbf6539c2de3fb0b8	-0.0025910192507493067
164	0x3f411465c8e963e0	0.0005212304111622511
165	0xbf7eef83f9c7be08	-0.00755263855943112
166	0x3f820809a45563ae	0.008804393127023715
167	0xbf6fb56d2bb74aa0	-0.003870690559531667
168	0x3f6eef4799f12760	0.0037762068236916607
169	0xbf50fe343dd9cfd0	-0.0010371694728776755
170	0x3f839ec79ab457c8	0.009580192002015667
171	0xbf706fbbe3ac1324	-0.004012807791472981
172	0xbf32c9d4d6938a4b	-0.0002866882919773424
173	0x3f31c3d51433a6d2	0.000271071931094197
174	0x3ef7e806fbf9eb10	2.279887826126941e-05
175	0xbf227f03077d5b40	-0.00014111434915761202
176	0x3f26084510d1d908	0.00016809313857252977
177	0xbf380b7f768637a0	-0.00036689626588148373
178	0x3f348e12eb68007c	0.0003136440458604351
179	0x3f232144283a1428	0.00014594990726749077
180	0xbf41bce6e440b1ba	-0.0005413176918458919
181	0x3f63877e6ad7e3d0	0.002383944424533692
182	0xbf937c911afa4347	-0.019029872199612965
183	0x3f76e594f390a3a0	0.0055900400557583885
184	0x3f7bfd89093c0058	0.006833586976199589
185	0xbf75de25a0be04a8	-0.005338808998090951
186	0xbf943e43d345521e	-0.01976877190584691
187	0x3f99fb9b6f6fc4ea	0.025373867680120656
188	0x3f8bb50169239a10	0.013528834363069314
189	0xbfab4328987fedd7	-0.05324675427979358
190	0xc00d6748fc42629c	-3.6754321773299363
191	0xc007dddfa38cfb86	-2.9833367135428857
192	0x400a4c298a7af4c1	3.2871886080525603
193	0x400e3026212ac608	3.773510226362081
194	0x3fd3f3e18de494e0	0.3117603192971057
195	0x40012a3e970303c0	2.1456271932406423
196	0xbff112fbb3a3a78c	-1.0671345727118675
197	0xbff89f6955fa2908	-1.5389188154682092
198	0x400f3b85dbfc0980	3.90406391013056
