hw1/model.npy (npy, 2680 bytes, 1 tensors)

array f8 [325]
00000000: 4a7f 4fff 98fc 0dc0 18e4 ef67 712a 703f
00000010: 2829 9c9a e490 633f a0b4 cde8 3d12 b6bf
00000020: 7e0b ff59 5cd7 98bf 1ed5 69c5 48a3 c03f
00000030: f66d db56 c737 b6bf 032a a768 1e2e c1bf
00000040: 77b8 85e5 d46f d03f 0258 998e a419 ab3f
00000050: 0d5f fb2f 27d1 2cc0 88c4 1f97 6c72 16c0
00000060: 9918 123e f441 2a40 ca82 e429 888f 2140
00000070: bc97 1694 ce0e 07c0 4059 4c8f 075a 2640
00000080: 20fa e7fb d6ea ca3f eaef 1a95 7ad2 19c0
00000090: 4216 ad74 ec9d 09c0 fcd8 2066 93cb c63f
000000a0: 7fb7 a549 022b 0940 b0bc 3736 cfb2 f3bf
000000b0: 0c0e d8a0 81ea e0bf d078 ecc9 e051 c23f
000000c0: f02f 1f61 0e71 e8bf b05c 0bd2 7092 febf
000000d0: 009c 2f5a 41e9 e73f d894 fa25 6905 1240
000000e0: 0c4d 6472 8a30 18c0 a4df f946 103a 0e40
000000f0: ae49 af6d 7341 1040 4438 ff65 8174 c33f
00000100: 35a0 783a 33a4 00c0 6878 7d83 2666 d7bf
00000110: 4619 784a c933 f93f f295 3e39 d0a8 fb3f
00000120: abf7 f7ee 8122 0bc0 a195 df7f 9c9e c1bf
00000130: d816 00e2 5e66 a23f 94bc d15a 1a81 b63f
00000140: 0493 da1e 54f9 cabf 781d 6d0a 333e ddbf
00000150: 1067 48d0 1916 bbbf 38ec 8f98 6e2b b73f
00000160: 8a72 007e 5dbf ddbf 98f4 00b9 6678 debf
00000170: 007f 83ae 26df b0bf a030 4cd4 cc62 a4bf
00000180: be0b 8e03 65af d0bf 806c 69bf 104d b0bf
00000190: 9c40 dbe2 5284 d3bf 188a dba6 7d4e cdbf
000001a0: f0b8 ca27 be9d b9bf d098 c81e 135a b2bf
000001b0: 0c47 53b6 2520 d7bf a0e3 98f3 bbbe b43f
000001c0: e04a 7c09 d7f1 abbf e87a 23db d3a2 cd3f
000001d0: f8ce c689 1fad bf3f 2291 22e6 81a8 d43f
000001e0: a8e6 3ffe 5b84 cd3f 8874 a3ce b563 b43f
000001f0: 30c0 10ea adfc c13f 48c8 7959 2a77 d93f
00000200: d23a e3a4 5faf 9d3f 7cec c2c9 b4a4 97bf
00000210: 2443 67fc ba5e 90bf 20f2 2730 e657 873f
00000220: 416f ad17 be22 95bf 2c09 e8c4 61cc 913f
00000230: 5076 32ed 1fff aebf 2000 11fa 4f91 a4bf
00000240: db2a 9f3d 8a9f c43f 78e3 96b3 9be2 8b3f
00000250: 3037 e5ad 1c0f 703f 24dc a0ba b2cc abbf
00000260: 51da 2245 d230 b03f 9874 a5fb 033c 913f
00000270: 5e73 1d58 140f b2bf 46a4 e176 0316 a63f
00000280: a704 277e fb42 a63f d238 eb6a 97f3 92bf
00000290: 70ab d399 32c1 93bf 8f5c f74a e398 a2bf
000002a0: b03a 8928 7b1b ce3f c687 ae0f 4888 d0bf
000002b0: 2c57 d97d c88e 99bf d33f d225 7526 df3f
000002c0: b2ef 9cf9 141b e0bf 00f6 13c7 f414 603f
000002d0: 8002 1647 1662 ed3f c03c b135 b34f 61bf
000002e0: 824c f9f0 322d bdbf 0e00 c2d1 e78a b2bf
000002f0: df25 06c1 463d b03f 518f 9381 ddd9 b0bf
00000300: 7423 abfe 5cde a73f 4892 0d15 ed65 a53f
00000310: 3b96 1506 4189 bfbf e84a eebc 7945 c6bf
00000320: 0008 2aec 1970 57bf 70f1 e24d 48f9 c03f
00000330: 68aa 0333 e84f c93f 4ef3 ab82 2ebf e2bf
00000340: 0048 9315 43c1 953f 6038 b78e ed6e db3f
00000350: 7a2d e353 ac02 d9bf d0f5 0361 e725 ba3f
00000360: 54ad 7cf5 39ea c43f 09b6 fb91 52ce d7bf
00000370: 05a6 0086 cbc4 e13f 8b83 2b24 df6d c5bf
00000380: 2a23 a16e a7d6 bbbf ac24 8afb 8ce4 aa3f
00000390: fc2a 034d 7386 d23f 1f1c 379d d845 ddbf
000003a0: d881 afb9 5e5a a8bf f5b3 6502 c24d e73f
000003b0: 0610 a64b f31d 2c40 8ed1 a884 f49c 1b40
000003c0: c45e 728d 6d21 25c0 7b4b 4b0c b973 22c0
000003d0: e03e bc12 d397 e73f b027 faf4 d94b 1ec0
000003e0: a019 e35f 6a42 1540 4430 3830 1246 1b40
000003f0: 65ee 8c2c 9315 21c0 e07b 2c72 c0c6 80bf
00000400: ec9d 6beb 3922 8b3f a853 f0ca 31f6 793f
00000410: b09c a27f 51a8 80bf 540f d907 33ad 8ebf
00000420: c058 49cf 22ff 703f 80cf e328 1729 6f3f
00000430: 208e cde7 51dc 5dbf 8049 88e1 0507 35bf
00000440: 0849 7c95 c9a9 703f f027 e4f1 52c0 79bf
00000450: a0c0 3da4 d5b7 4dbf d08c ae44 c26d 5ebf
00000460: c46e 3749 4d20 883f a491 6fed b15f 65bf
00000470: e9ab 394c cbce 853f 6cc1 b31f 1f23 803f
00000480: a077 ede7 80ce 8a3f 801d 3ec5 59b1 b23f
00000490: c419 a989 9273 e7bf 9072 ab2e e0a9 b23f
000004a0: 04a6 adb0 66d6 d2bf 66d1 3214 30b5 d33f
000004b0: 01a8 b66f 37c7 d5bf 58ea a803 accd aabf
000004c0: 228a 1f43 a52f cbbf 94e2 e73b b0d4 d8bf
000004d0: c015 c0f3 7679 c0bf 3cad 6fcc d783 d23f
000004e0: 90c3 3331 90df b43f 3867 7732 1c33 ce3f
000004f0: 94e5 7254 423f d43f 3ea2 1537 ba90 c03f
00000500: 2988 1124 5680 c3bf 9a53 d38e 2bf3 c8bf
00000510: 60c0 8344 4060 79bf 2c3f 8b1f 322b 6a3f
00000520: f8af cb39 3010 7ebf 0ab8 1c5c 2c0b 853f
00000530: de05 0cfd d6a5 7fbf 58e1 c0b2 e76f 74bf
00000540: 681f 0f28 0499 873f 281b 9779 dc04 453f
00000550: 0b53 a66e 5d22 94bf ad8b b1c2 8c09 863f
00000560: 0f5e f79f 040f 0f40 ccba 5f97 296a fe3f
00000570: f257 68a2 0f4a 11c0 ce5a cc08 15df 06c0
00000580: a0ef 932e 0a93 f33f 7039 d4cf 57a9 0ec0
00000590: e451 2a80 c6af f3bf 7576 878f 7e4d 0240
000005a0: 001b 9421 fdde 0e40 5ad4 29c5 2aa2 b7bf
000005b0: 19c4 90ca f9a2 e3bf 447d 6e27 0adf c93f
000005c0: f065 ff68 d494 bd3f 5070 263f 7880 b73f
000005d0: 2e14 bdd8 02e9 c23f f83e 62a2 a217 ce3f
000005e0: acc5 c1f5 4154 cabf 3b76 b50d 1804 e6bf
000005f0: 336e dbb1 5768 2940 6c31 ef62 e9ae 1340
00000600: ee9e fa89 c483 27c0 a0f9 9d63 0633 f93f
00000610: d4f3 fa28 03f4 1e40 bf97 b708 0b9f 1ec0
00000620: 4822 0fb0 fead 0640 fc5b b26b a062 0540
00000630: 5bc1 bc02 34cf 20c0 2a26 5ff0 d4c4 883f
00000640: 0040 6dfc cfd6 353f 8194 3cbd 548e 903f
00000650: 24de 1bf1 4934 9cbf c099 969e 272b 8e3f
00000660: ccab 270d 0692 91bf d02c 8aef 42be 6fbf
00000670: 5411 0574 25d1 81bf 1c60 0b4f 532d 913f
00000680: dc25 76d7 5bb5 723f 0092 3cee 5266 30bf
00000690: 1886 0582 513d 833f 28c6 064d 0daa 8cbf
000006a0: 5075 084b 5165 6c3f 301b 2b5c 93f0 6fbf
000006b0: 00f5 26c0 481a 2d3f aa19 3a36 930e 8dbf
000006c0: 1670 f0b7 867b 833f 4421 631b 8949 62bf
000006d0: 005e ca2c 8d3b 43bf de45 620b 5b6c 7fbf
000006e0: 4437 0702 fd3e 833f d081 4e7d d64e 69bf
000006f0: c076 7911 c6ba 693f 0003 4342 f9d3 3ebf
00000700: c604 e7f7 2281 823f 0ce3 7de1 5aa2 71bf
00000710: 3ef6 1d0c 6f46 33bf a94b 9730 c542 323f
00000720: e478 a570 204f f33e b2aa b536 7ba5 23bf
00000730: 68b1 3a2e 2a45 223f 220c ba73 1626 35bf
00000740: 0266 0a7a 33b7 333f 8c0e 7a52 f8e0 243f
00000750: 61c5 39e2 aa14 42bf 7004 2d52 9332 0abf
00000760: c068 cb33 394b 073f c81f 0eaa 7501 2e3f
00000770: 6c06 2b23 86b5 2abf 0e22 492b 1c0b 30bf
00000780: 7238 25ae 80f3 323f 00dc 256d 4295 d9be
00000790: 71b7 3ed7 41f6 3ebf 6c5a 3ebb 2c82 3e3f
000007a0: 8498 9836 27b5 36bf 6428 4db4 de1f 3e3f
000007b0: c804 6280 4f08 3cbf b4bc c6f5 729c 363f
000007c0: b4be 9e91 f064 3b3f 90d0 0861 77e2 24bf
000007d0: d8f4 0eaa 5659 4dbf 84fa 1489 5176 473f
000007e0: 08b6 5017 3810 2e3f f0f6 2ff9 2be2 513f
000007f0: aad4 256e 939f 603f 80f5 6251 2876 453f
-3.7483386942039134 0.003946726791576281 0.002388426296311103 -0.08621584829025375 -0.024259036057411525 0.12998304023100443 -0.08678861494575316 -0.13421993360528015
0.2568256608418617 0.05293001404486121 -14.40850210135934 -5.611742364229151 13.128816547116275 8.780335721153637 -2.882229954661822 11.17583892638197
0.21029174137216078 -6.4555457399073735 -3.202111159832186 0.1780876396821397 3.1460004571626423 -1.2311546438102532 -0.5286262647136382 0.14312372073704305
-0.7638008019362115 -1.91075212524974 0.7472235452122504 4.505283921641613 -6.047403132793317 3.7783513588910456 4.0639168871152105 0.15199296455688416
-2.080175835424621 -0.36560976830322156 1.5751431378317462 1.7287142025101017 -3.3918493909286176 -0.13765293353860122 0.035937275970395255 0.08790745465533895
-0.21073390490087018 -0.4569213487452184 -0.10580598197011803 0.09050646996176759 -0.46480500511987854 -0.47609870974322055 -0.06590501556956596 -0.03981628505252499
-0.26070523593096684 -0.06367592499866426 -0.3049514022250237 -0.22895784995405744 -0.10006321403008989 -0.07168693067123688 -0.3613371162910972 0.08103537270734629
-0.05457946768560418 0.23153160286070507 0.12373540033041397 0.32278487657665 0.23060178675205134 0.07964645666966608 0.14052366188980292 0.397898280504823
0.028989309729520248 -0.02308924180463777 -0.015986367850760477 0.011398123116117154 -0.02064034480586874 0.01738121761628368 -0.060540197090841574 -0.04017114570206126
0.16111877449869536 0.013615814607747842 0.003920661953385182 -0.054296098024160494 0.06324495494741568 0.016830503687164183 -0.07054259444471486 0.0431366999262726
0.04347978510805577 -0.018507352734382483 -0.01929167808422555 -0.036322691823152835 0.2352136562280598 -0.2583179619924717 -0.024958737069332645 0.4867222661350727
-0.5033059001211682 0.001963117677063364 0.9182235134504282 -0.0021131992521429 -0.11397093184614174 -0.0724320304016148 0.06343500339985252 -0.06582436002241578
0.046618372046913686 0.041793259448955455 -0.12318807982008988 -0.17399522519243438 -0.0014305356168340388 0.1326074962906989 0.1977510689824442 -0.5858376075917506
0.02124504870591437 0.4286455053051039 -0.3907881564343466 0.10214086645642984 0.16339802252455604 -0.3719679284684792 0.5552728287922838 -0.16741551653015238
-0.10874411059297687 0.05252495356132533 0.2894562007974597 -0.4573880706124686 -0.04756446854276292 0.7282419249364681 14.058496822377503 6.903276512912624
-10.565288944445804 -9.226021179381624 0.7372832647251606 -7.574073627250911 5.314858911739435 6.818428758077122 -8.542138473704833 -0.008191588863665389
0.01324887513824443 0.006338304999208434 -0.00813354178201417 -0.01497878902149067 0.00414956662696947 0.00380377314933783 -0.0018225478990751068 -0.000320853172099643
0.004068171918122816 -0.006286930087535211 -0.0009069245502200292 -0.00185722323906461 0.011780360981837552 -0.0026091075082936444 0.010648334754668158 0.007879489092801527
0.013089186742657521 0.07301865640157779 -0.7328579605753522 0.0729045976581324 -0.29433600667707105 0.30793382618437304 -0.340284213156906 -0.05235040230441673
-0.2123915269613273 -0.38798147058654675 -0.12870680715438532 0.2892970558593395 0.0815363044855657 0.23593475784473994 0.31636102911905906 0.12941672982857882
-0.152354018794598 -0.19492096399212927 -0.006195307774973541 0.003194425484572513 -0.007339657194034281 0.010275217591324565 -0.007726516531648879 -0.004989533492384922
0.011522324059015168 0.0006414486444378019 -0.019662341955682765 0.01076040238530659 3.8823330399861855 1.9009185708088578 -4.322325265520691 -2.8589268386234385
1.2233983821342704 -3.83268701902778 -1.230413914342642 2.287839051553244 3.8588812468836977 -0.09231822312888607 -0.613644500385024 0.2021191303765396
0.11555221141261263 0.09180404226066341 0.14773593504847454 0.23509629181761915 -0.2056963396058057 -0.6879997508764925 12.70379405788035 4.920812173699556
-11.757358848422395 1.5749572650234782 7.7382933047456 -7.655315529065716 2.834958434545374 2.673157540684313 -8.404693685094278 0.012094176850854305
0.00033323838981846876 0.016167949724281264 -0.02754321607696232 0.014730748679380734 -0.017158598473468165 -0.003874903425019484 -0.008699696162360361 0.0167744652743239
0.004567488438064395 -0.00025023960755479746 0.009394299297755856 -0.01399622336689095 0.0034662807231728224 -0.0038988950849189394 0.00022203577107219458 -0.014187955944419201
0.009512951362971516 -0.002232330119202571 -0.0005869330721734456 -0.007671695368246271 0.009397484421153408 -0.0030893506286277864 0.003140818454808819 -0.000470398287017601
0.00903537100828301 -0.004305224421721442 -0.00029411517254360534 0.00027863802151023104 1.8414582009789677e-05 -0.0001498902232513664 0.00013939037227340555 -0.00032270477434098905
0.00030083662753951923 0.00015929251934575608 -0.0005517801659619509 -4.996788108836074e-05 4.442947690615337e-05 0.00022892533618468062 -0.00020377409381038285 -0.0002448028347186445
0.00028917209251211947 -6.099473198842818e-06 -0.0004724417442457585 0.0004655226905411539 -0.00034649093012929116 0.0004596632682490941 -0.0004277414412926059 0.0003450184501855955
0.00041800378096022305 -0.00015933711303406763 -0.0008956597486001984 0.0007160089609568742 0.00022936520295628615 0.0010915212085360025 0.002029216718421785 0.0006549546112847721
